…
hon/lib/python3.7/site-packages/tensorflow/python/ops/init_ops.py:1251: calling VarianceScaling.__init__ (from tensorflow.python.ops.init_ops) with dtype is deprecated and will be removed in a future version.\nInstructions for updating:\nCall initializer instance with the dtype argument instead of passing it to the constructor\n(None, 1)\nModel: &#34;sequential&#34;\n_________________________________________________________________\nLayer (type)                 Output Shape              Param #   \n=================================================================\nlstm_0 (LSTM)                (None, 1, 100)            48000     \n_________________________________________________________________\ndropout_0 (Dropout)          (None, 1, 100)            0         \n_________________________________________________________________\nlstm_1 (LSTM)                (None, 1, 50)             30200     \n_________________________________________________________________\ndropout_1 (Dropout)          (None, 1, 50)             0         \n_________________________________________________________________\nlstm_2 (LSTM)                (None, 25)                7600      \n_________________________________________________________________\ndropout_2 (Dropout)          (None, 25)                0         \n_________________________________________________________________\ndense_0 (Dense)              (None, 1)                 26        \n_________________________________________________________________\nactivation_0 (Activation)    (None, 1)                 0         \n=================================================================\nTotal params: 85,826\nTrainable params: 85,826\nNon-trainable params: 0\n_________________________________________________________________\nNone\n</div>","arguments":{},"addedWidgets":{},"removedWidgets":[],"datasetInfos":[]},"errorSummary":null,"error":null,"workflows":[],"startTime":1578953061783,"submitTime":157895266
…
